==========================================================================================
Layer (type:depth-idx)                   Output Shape              Param #
==========================================================================================
AlexNet                                  [64, 2]                   --
├─Sequential: 1-1                        [64, 256, 6, 6]           --
│    └─Conv2d: 2-1                       [64, 64, 55, 55]          (23,296)
│    └─ReLU: 2-2                         [64, 64, 55, 55]          --
│    └─MaxPool2d: 2-3                    [64, 64, 27, 27]          --
│    └─Conv2d: 2-4                       [64, 192, 27, 27]         (307,392)
│    └─ReLU: 2-5                         [64, 192, 27, 27]         --
│    └─MaxPool2d: 2-6                    [64, 192, 13, 13]         --
│    └─Conv2d: 2-7                       [64, 384, 13, 13]         (663,936)
│    └─ReLU: 2-8                         [64, 384, 13, 13]         --
│    └─Conv2d: 2-9                       [64, 256, 13, 13]         (884,992)
│    └─ReLU: 2-10                        [64, 256, 13, 13]         --
│    └─Conv2d: 2-11                      [64, 256, 13, 13]         (590,080)
│    └─ReLU: 2-12                        [64, 256, 13, 13]         --
│    └─MaxPool2d: 2-13                   [64, 256, 6, 6]           --
├─AdaptiveAvgPool2d: 1-2                 [64, 256, 6, 6]           --
├─Sequential: 1-3                        [64, 2]                   --
│    └─Dropout: 2-14                     [64, 9216]                --
│    └─Linear: 2-15                      [64, 4096]                (37,752,832)
│    └─ReLU: 2-16                        [64, 4096]                --
│    └─Dropout: 2-17                     [64, 4096]                --
│    └─Linear: 2-18                      [64, 4096]                (16,781,312)
│    └─ReLU: 2-19                        [64, 4096]                --
│    └─Linear: 2-20                      [64, 2]                   8,194
==========================================================================================
Total params: 57,012,034
Trainable params: 8,194
Non-trainable params: 57,003,840
Total mult-adds (Units.GIGABYTES): 45.48
==========================================================================================
Input size (MB): 38.54
Forward/backward pass size (MB): 252.51
Params size (MB): 228.05
Estimated Total Size (MB): 519.09
…
