==========================================================================================
Layer (type:depth-idx)                   Output Shape              Param #
==========================================================================================
ConvolutionalNetwork                     [64, 2]                   --
├─Sequential: 1-1                        [64, 512, 6, 6]           3,911,808
│    └─Conv2d: 2-1                       [64, 64, 200, 200]        1,792
│    └─BatchNorm2d: 2-2                  [64, 64, 200, 200]        128
├─Sequential: 1-10                       --                        (recursive)
│    └─ReLU: 2-3                         [64, 64, 200, 200]        --
├─Sequential: 1-11                       --                        (recursive)
│    └─MaxPool2d: 2-4                    [64, 64, 100, 100]        --
│    └─Conv2d: 2-5                       [64, 128, 100, 100]       73,856
│    └─BatchNorm2d: 2-6                  [64, 128, 100, 100]       256
├─Sequential: 1-10                       --                        (recursive)
│    └─ReLU: 2-7                         [64, 128, 100, 100]       --
├─Sequential: 1-11                       --                        (recursive)
│    └─MaxPool2d: 2-8                    [64, 128, 50, 50]         --
│    └─Conv2d: 2-9                       [64, 256, 50, 50]         295,168
│    └─BatchNorm2d: 2-10                 [64, 256, 50, 50]         512
├─Sequential: 1-10                       --                        (recursive)
│    └─ReLU: 2-11                        [64, 256, 50, 50]         --
├─Sequential: 1-11                       --                        (recursive)
│    └─MaxPool2d: 2-12                   [64, 256, 25, 25]         --
│    └─Conv2d: 2-13                      [64, 512, 25, 25]         1,180,160
│    └─BatchNorm2d: 2-14                 [64, 512, 25, 25]         1,024
├─Sequential: 1-10                       --                        (recursive)
│    └─ReLU: 2-15                        [64, 512, 25, 25]         --
├─Sequential: 1-11                       --                        (recursive)
│    └─MaxPool2d: 2-16                   [64, 512, 12, 12]         --
│    └─Conv2d: 2-17                      [64, 512, 12, 12]         2,359,808
│    └─BatchNorm2d: 2-18                 [64, 512, 12, 12]         1,024
├─Sequential: 1-10                       --                        (recursive)
│    └─ReLU: 2-19                        [64, 512, 12, 12]         --
├─Sequential: 1-11                       --                        (recursive)
│    └─MaxPool2d: 2-20                   [64, 512, 6, 6]           --
├─Sequential: 1-12                       [64, 2]                   --
│    └─Linear: 2-21                      [64, 1024]                18,875,392
│    └─ReLU: 2-22                        [64, 1024]                --
│    └─Dropout: 2-23                     [64, 1024]                --
│    └─Linear: 2-24                      [64, 256]                 262,400
│    └─ReLU: 2-25                        [64, 256]                 --
│    └─Dropout: 2-26                     [64, 256]                 --
│    └─Linear: 2-27                      [64, 2]                   514
==========================================================================================
Total params: 26,963,842
Trainable params: 26,963,842
Non-trainable params: 0
Total mult-adds (Units.GIGABYTES): 169.26
==========================================================================================
Input size (MB): 30.72
Forward/backward pass size (MB): 4991.35
Params size (MB): 92.21
Estimated Total Size (MB): 5114.28
…
