==========================================================================================
Layer (type:depth-idx)                   Output Shape              Param #
==========================================================================================
ConvolutionalNetwork                     [64, 2]                   --
├─Sequential: 1-1                        [64, 512, 7, 7]           3,908,992
│    └─Conv2d: 2-1                       [64, 64, 250, 250]        1,792
├─Sequential: 1-10                       --                        (recursive)
│    └─ReLU: 2-2                         [64, 64, 250, 250]        --
├─Sequential: 1-11                       --                        (recursive)
│    └─MaxPool2d: 2-3                    [64, 64, 125, 125]        --
│    └─Conv2d: 2-4                       [64, 128, 125, 125]       73,856
├─Sequential: 1-10                       --                        (recursive)
│    └─ReLU: 2-5                         [64, 128, 125, 125]       --
├─Sequential: 1-11                       --                        (recursive)
│    └─MaxPool2d: 2-6                    [64, 128, 62, 62]         --
│    └─Conv2d: 2-7                       [64, 256, 62, 62]         295,168
├─Sequential: 1-10                       --                        (recursive)
│    └─ReLU: 2-8                         [64, 256, 62, 62]         --
├─Sequential: 1-11                       --                        (recursive)
│    └─MaxPool2d: 2-9                    [64, 256, 31, 31]         --
│    └─Conv2d: 2-10                      [64, 512, 31, 31]         1,180,160
├─Sequential: 1-10                       --                        (recursive)
│    └─ReLU: 2-11                        [64, 512, 31, 31]         --
├─Sequential: 1-11                       --                        (recursive)
│    └─MaxPool2d: 2-12                   [64, 512, 15, 15]         --
│    └─Conv2d: 2-13                      [64, 512, 15, 15]         2,359,808
├─Sequential: 1-10                       --                        (recursive)
│    └─ReLU: 2-14                        [64, 512, 15, 15]         --
├─Sequential: 1-11                       --                        (recursive)
│    └─MaxPool2d: 2-15                   [64, 512, 7, 7]           --
├─Sequential: 1-12                       [64, 2]                   --
│    └─Linear: 2-16                      [64, 512]                 12,845,568
│    └─ReLU: 2-17                        [64, 512]                 --
│    └─Dropout: 2-18                     [64, 512]                 --
│    └─Linear: 2-19                      [64, 256]                 131,328
│    └─ReLU: 2-20                        [64, 256]                 --
│    └─Dropout: 2-21                     [64, 256]                 --
│    └─Linear: 2-22                      [64, 2]                   514
==========================================================================================
Total params: 20,797,186
Trainable params: 20,797,186
Non-trainable params: 0
Total mult-adds (Units.GIGABYTES): 261.04
==========================================================================================
Input size (MB): 48.00
Forward/backward pass size (MB): 3887.14
Params size (MB): 67.55
Estimated Total Size (MB): 4002.69
…
