==========================================================================================
Layer (type:depth-idx)                   Output Shape              Param #
==========================================================================================
ConvolutionalNetwork                     [64, 2]                   --
├─Sequential: 1-1                        [64, 512, 7, 7]           3,911,808
│    └─Conv2d: 2-1                       [64, 64, 224, 224]        1,792
│    └─BatchNorm2d: 2-2                  [64, 64, 224, 224]        128
├─Sequential: 1-10                       --                        (recursive)
│    └─ReLU: 2-3                         [64, 64, 224, 224]        --
├─Sequential: 1-11                       --                        (recursive)
│    └─MaxPool2d: 2-4                    [64, 64, 112, 112]        --
│    └─Conv2d: 2-5                       [64, 128, 112, 112]       73,856
│    └─BatchNorm2d: 2-6                  [64, 128, 112, 112]       256
├─Sequential: 1-10                       --                        (recursive)
│    └─ReLU: 2-7                         [64, 128, 112, 112]       --
├─Sequential: 1-11                       --                        (recursive)
│    └─MaxPool2d: 2-8                    [64, 128, 56, 56]         --
│    └─Conv2d: 2-9                       [64, 256, 56, 56]         295,168
│    └─BatchNorm2d: 2-10                 [64, 256, 56, 56]         512
├─Sequential: 1-10                       --                        (recursive)
│    └─ReLU: 2-11                        [64, 256, 56, 56]         --
├─Sequential: 1-11                       --                        (recursive)
│    └─MaxPool2d: 2-12                   [64, 256, 28, 28]         --
│    └─Conv2d: 2-13                      [64, 512, 28, 28]         1,180,160
│    └─BatchNorm2d: 2-14                 [64, 512, 28, 28]         1,024
├─Sequential: 1-10                       --                        (recursive)
│    └─ReLU: 2-15                        [64, 512, 28, 28]         --
├─Sequential: 1-11                       --                        (recursive)
│    └─MaxPool2d: 2-16                   [64, 512, 14, 14]         --
│    └─Conv2d: 2-17                      [64, 512, 14, 14]         2,359,808
│    └─BatchNorm2d: 2-18                 [64, 512, 14, 14]         1,024
├─Sequential: 1-10                       --                        (recursive)
│    └─ReLU: 2-19                        [64, 512, 14, 14]         --
├─Sequential: 1-11                       --                        (recursive)
│    └─MaxPool2d: 2-20                   [64, 512, 7, 7]           --
├─Sequential: 1-12                       [64, 2]                   --
│    └─Linear: 2-21                      [64, 512]                 12,845,568
│    └─BatchNorm1d: 2-22                 [64, 512]                 1,024
│    └─ReLU: 2-23                        [64, 512]                 --
│    └─Dropout: 2-24                     [64, 512]                 --
│    └─Linear: 2-25                      [64, 256]                 131,328
│    └─BatchNorm1d: 2-26                 [64, 256]                 512
│    └─ReLU: 2-27                        [64, 256]                 --
│    └─Dropout: 2-28                     [64, 256]                 --
│    └─Linear: 2-29                      [64, 2]                   514
==========================================================================================
Total params: 20,804,482
Trainable params: 20,804,482
Non-trainable params: 0
Total mult-adds (Units.GIGABYTES): 213.94
==========================================================================================
Input size (MB): 38.54
Forward/backward pass size (MB): 6269.17
Params size (MB): 67.57
Estimated Total Size (MB): 6375.28
…
