==========================================================================================
Layer (type:depth-idx)                   Output Shape              Param #
==========================================================================================
ConvolutionalNetwork                     [64, 2]                   --
├─Sequential: 1-1                        [64, 256, 14, 14]         387,520
│    └─Conv2d: 2-1                       [64, 32, 224, 224]        896
├─Sequential: 1-8                        --                        (recursive)
│    └─ReLU: 2-2                         [64, 32, 224, 224]        --
├─Sequential: 1-9                        --                        (recursive)
│    └─MaxPool2d: 2-3                    [64, 32, 112, 112]        --
│    └─Conv2d: 2-4                       [64, 64, 112, 112]        18,496
├─Sequential: 1-8                        --                        (recursive)
│    └─ReLU: 2-5                         [64, 64, 112, 112]        --
├─Sequential: 1-9                        --                        (recursive)
│    └─MaxPool2d: 2-6                    [64, 64, 56, 56]          --
│    └─Conv2d: 2-7                       [64, 128, 56, 56]         73,856
├─Sequential: 1-8                        --                        (recursive)
│    └─ReLU: 2-8                         [64, 128, 56, 56]         --
├─Sequential: 1-9                        --                        (recursive)
│    └─MaxPool2d: 2-9                    [64, 128, 28, 28]         --
│    └─Conv2d: 2-10                      [64, 256, 28, 28]         295,168
├─Sequential: 1-8                        --                        (recursive)
│    └─ReLU: 2-11                        [64, 256, 28, 28]         --
├─Sequential: 1-9                        --                        (recursive)
│    └─MaxPool2d: 2-12                   [64, 256, 14, 14]         --
├─Sequential: 1-10                       [64, 2]                   --
│    └─Linear: 2-13                      [64, 256]                 12,845,312
│    └─ReLU: 2-14                        [64, 256]                 --
│    └─Linear: 2-15                      [64, 128]                 32,896
│    └─ReLU: 2-16                        [64, 128]                 --
│    └─Linear: 2-17                      [64, 2]                   258
==========================================================================================
Total params: 13,654,402
Trainable params: 13,654,402
Non-trainable params: 0
Total mult-adds (Units.GIGABYTES): 48.18
==========================================================================================
Input size (MB): 38.54
Forward/backward pass size (MB): 1541.60
Params size (MB): 53.07
Estimated Total Size (MB): 1633.21
…
